…
dropout': 0.1, 'model.bert_flavor': 'cross-encoder/ms-marco-electra-base'})
Setting the seed to 2
Loss: <flexneuart.models.train.loss.PairwiseMarginRankingLossWrapper object at 0x103d78b50>
Model type name: bert_maxp, registered class: <class 'flexneuart.models.bert_aggreg_p.BertMaxPRanker'>
Creating the model from scratch!
Model type: cross-encoder/ms-marco-electra-base # of channels: 13 hidden layer size: 768 input window size: 512 no token type IDs: False
Dropout Dropout(p=0.1, inplace=False)
BertMaxPRanker(
  (bert): ElectraModel(
    (embeddings): ElectraEmbeddings(
      (word_embeddings): Embedding(30522, 768, padding_idx=0)
      (position_embeddings): Embedding(512, 768)
      (token_type_embeddings): Embedding(2, 768)
      (LayerNorm): LayerNorm((768,), eps=1e-12, elementwise_affine=True)
      (dropout): Dropout(p=0.1, inplace=False)
    )
    (encoder): ElectraEncoder(
      (layer): ModuleList(
        (0-11): 12 x ElectraLayer(
          (attention): ElectraAttention(
            (self): ElectraSelfAttention(
              (query): Linear(in_features=768, out_features=768, bias=True)
              (key): Linear(in_features=768, out_features=768, bias=True)
              (value): Linear(in_features=768, out_features=768, bias=True)
              (dropout): Dropout(p=0.1, inplace=False)
            )
            (output): ElectraSelfOutput(
              (dense): Linear(in_features=768, out_features=768, bias=True)
              (LayerNorm): LayerNorm((768,), eps=1e-12, elementwise_affine=True)
              (dropout): Dropout(p=0.1, inplace=False)
            )
          )
          (intermediate): ElectraIntermediate(
            (dense): Linear(in_features=768, out_features=3072, bias=True)
            (intermediate_act_fn): GELUActivation()
          )
          (output): ElectraOutput(
            (dense): Linear(in_features=3072, out_features=768, bias=True)
            (LayerNorm): LayerNorm((768,), eps=1e-12, elementwise_affine=True)
            (dropout): Dropout(p=0.1, inplace=False)
          )
        )
      )
    )
  )
  (dropout): Dropout(p=0.1, inplace=False)
  (cls): Linear(in_features=768, out_features=1, bias=True)
)
loading datafile (by line): 0it [00:00, ?it/s]                                              skipping line 14044 because it has wrong # of fields: "2"
loading datafile (by line): 0it [00:00, ?it/s]                                              loading datafile (by line): 0it [00:00, ?it/s]loading datafile (by line): 4960it [00:00, 49589.52it/s]l
…
